Model: UNet(
  (conv2d_1): Conv2dBlock(
    (conv1): Conv2d(3, 16, kernel_size=(3, 3), stride=(1, 1), padding=same)
    (bn1): BatchNorm2d(16, eps=1e-05, momentum=0.1, affine=True, track_running_stats=True)
    (conv2): Conv2d(16, 16, kernel_size=(3, 3), stride=(1, 1), padding=same)
    (bn2): BatchNorm2d(16, eps=1e-05, momentum=0.1, affine=True, track_running_stats=True)
    (relu): ReLU()
  )
  (conv2d_2): Conv2dBlock(
    (conv1): Conv2d(16, 32, kernel_size=(3, 3), stride=(1, 1), padding=same)
    (bn1): BatchNorm2d(32, eps=1e-05, momentum=0.1, affine=True, track_running_stats=True)
    (conv2): Conv2d(32, 32, kernel_size=(3, 3), stride=(1, 1), padding=same)
    (bn2): BatchNorm2d(32, eps=1e-05, momentum=0.1, affine=True, track_running_stats=True)
    (relu): ReLU()
  )
  (conv2d_3): Conv2dBlock(
    (conv1): Conv2d(32, 64, kernel_size=(3, 3), stride=(1, 1), padding=same)
    (bn1): BatchNorm2d(64, eps=1e-05, momentum=0.1, affine=True, track_running_stats=True)
    (conv2): Conv2d(64, 64, kernel_size=(3, 3), stride=(1, 1), padding=same)
    (bn2): BatchNorm2d(64, eps=1e-05, momentum=0.1, affine=True, track_running_stats=True)
    (relu): ReLU()
  )
  (conv2d_4): Conv2dBlock(
    (conv1): Conv2d(64, 128, kernel_size=(3, 3), stride=(1, 1), padding=same)
    (bn1): BatchNorm2d(128, eps=1e-05, momentum=0.1, affine=True, track_running_stats=True)
    (conv2): Conv2d(128, 128, kernel_size=(3, 3), stride=(1, 1), padding=same)
    (bn2): BatchNorm2d(128, eps=1e-05, momentum=0.1, affine=True, track_running_stats=True)
    (relu): ReLU()
  )
  (conv2d_5): Conv2dBlock(
    (conv1): Conv2d(128, 256, kernel_size=(3, 3), stride=(1, 1), padding=same)
    (bn1): BatchNorm2d(256, eps=1e-05, momentum=0.1, affine=True, track_running_stats=True)
    (conv2): Conv2d(256, 256, kernel_size=(3, 3), stride=(1, 1), padding=same)
    (bn2): BatchNorm2d(256, eps=1e-05, momentum=0.1, affine=True, track_running_stats=True)
    (relu): ReLU()
  )
  (conv2dTranspose_1): ConvTranspose2d(256, 128, kernel_size=(3, 3), stride=(2, 2), padding=(1, 1))
  (conv2d_6): Conv2dBlock(
    (conv1): Conv2d(256, 128, kernel_size=(3, 3), stride=(1, 1), padding=same)
    (bn1): BatchNorm2d(128, eps=1e-05, momentum=0.1, affine=True, track_running_stats=True)
    (conv2): Conv2d(128, 128, kernel_size=(3, 3), stride=(1, 1), padding=same)
    (bn2): BatchNorm2d(128, eps=1e-05, momentum=0.1, affine=True, track_running_stats=True)
    (relu): ReLU()
  )
  (conv2dTranspose_2): ConvTranspose2d(128, 64, kernel_size=(3, 3), stride=(2, 2), padding=(1, 1))
  (conv2d_7): Conv2dBlock(
    (conv1): Conv2d(128, 64, kernel_size=(3, 3), stride=(1, 1), padding=same)
    (bn1): BatchNorm2d(64, eps=1e-05, momentum=0.1, affine=True, track_running_stats=True)
    (conv2): Conv2d(64, 64, kernel_size=(3, 3), stride=(1, 1), padding=same)
    (bn2): BatchNorm2d(64, eps=1e-05, momentum=0.1, affine=True, track_running_stats=True)
    (relu): ReLU()
  )
  (conv2dTranspose_3): ConvTranspose2d(64, 32, kernel_size=(3, 3), stride=(2, 2), padding=(1, 1))
  (conv2d_8): Conv2dBlock(
    (conv1): Conv2d(64, 32, kernel_size=(3, 3), stride=(1, 1), padding=same)
    (bn1): BatchNorm2d(32, eps=1e-05, momentum=0.1, affine=True, track_running_stats=True)
    (conv2): Conv2d(32, 32, kernel_size=(3, 3), stride=(1, 1), padding=same)
    (bn2): BatchNorm2d(32, eps=1e-05, momentum=0.1, affine=True, track_running_stats=True)
    (relu): ReLU()
  )
  (conv2dTranspose_4): ConvTranspose2d(32, 16, kernel_size=(3, 3), stride=(2, 2), padding=(1, 1))
  (conv2d_9): Conv2dBlock(
    (conv1): Conv2d(32, 16, kernel_size=(3, 3), stride=(1, 1), padding=same)
    (bn1): BatchNorm2d(16, eps=1e-05, momentum=0.1, affine=True, track_running_stats=True)
    (conv2): Conv2d(16, 16, kernel_size=(3, 3), stride=(1, 1), padding=same)
    (bn2): BatchNorm2d(16, eps=1e-05, momentum=0.1, affine=True, track_running_stats=True)
    (relu): ReLU()
  )
  (maxPool): MaxPool2d(kernel_size=(2, 2), stride=(2, 2), padding=0, dilation=1, ceil_mode=False)
  (dropout): Dropout(p=0.1, inplace=False)
  (segment): Conv2d(16, 1, kernel_size=(1, 1), stride=(1, 1))
  (activation): Sigmoid()
) 
 Max Epochs: 1000 
 Optimizer: Adam (
Parameter Group 0
    amsgrad: False
    betas: (0.9, 0.999)
    capturable: False
    eps: 1e-08
    foreach: None
    lr: 0.0005
    maximize: False
    weight_decay: 0
) 
 Scheduler: <torch.optim.lr_scheduler.ReduceLROnPlateau object at 0x7faa3c71dd60> 
 Loss Function: DiceLoss() 
 Device: cuda 
…
